…
relu')(net)net = layers.Dropout(0.25)(net)net = layers.Dense(num_classes)(net)net = layers.Activation('softmax')(net)model = tf.keras.Model(inputs=inputs, outputs=net, name='Basic-CNN')model.summary() 1234567891011121314151617181920212223242526272829303132333435363738394041424344454647# OutModel: \"Basic-CNN\"_________________________________________________________________Layer (type) Output Shape Param #=================================================================input_1 (InputLayer) [(None, 28, 28, 1)] 0_________________________________________________________________conv2d_25 (Conv2D) (None, 28, 28, 32) 320_________________________________________________________________activation_8 (Activation) (None, 28, 28, 32) 0_________________________________________________________________conv2d_26 (Conv2D) (None, 28, 28, 32) 9248_________________________________________________________________activation_9 (Activation) (None, 28, 28, 32) 0_________________________________________________________________max_pooling2d_8 (MaxPooling2 (None, 14, 14, 32) 0_________________________________________________________________dropout_5 (Dropout) (None, 14, 14, 32) 0_________________________________________________________________conv2d_27 (Conv2D) (None, 14, 14, 64) 18496_________________________________________________________________activation_10 (Activation) (None, 14, 14, 64) 0_________________________________________________________________conv2d_28 (Conv2D) (None, 14, 14, 64) 36928_________________________________________________________________activation_11 (Activation) (None, 14, 14, 64) 0_________________________________________________________________max_pooling2d_9 (MaxPooling2 (None, 7, 7, 64) 0_________________________________________________________________dropout_6 (Dropout) (None, 7, 7, 64) 0_________________________________________________________________flatten_4 (Flatten) (None, 3136) 0_________________________________________________________________dense_3 (Dense) (None, 512) 1606144_________________________________________________________________activation_12 (Activation) (None, 512) 0_________________________________________________________________dropout_7 (Dropout) (None, 512) 0_________________________________________________________________dense_4 (Dense) (None, 10) 5130_________________________________________________________________activation_13 (Activation) (None, 10) 0=================================================================Total params: 1,676,266Trainable params: 1,676,266Non-trainable params: 0_________________________________________________________________","categories":[{"name":"Programming","slug":"Programming","permalink":"http://hgko1207.github.io/categories/Programming/"},{"name":"AI","slug":"Programming/AI","permalink":"http://hgko1207.github.
…
